Model: "vgg16"
_________________________________________________________________
Layer (type)                 Output Shape              Param #   
=================================================================
input_1 (InputLayer)         [(None, 225, 300, 3)]     0         
_________________________________________________________________
block1_conv1 (Conv2D)        (None, 225, 300, 64)      1792      
_________________________________________________________________
block1_conv2 (Conv2D)        (None, 225, 300, 64)      36928     
_________________________________________________________________
block1_pool (MaxPooling2D)   (None, 112, 150, 64)      0         
_________________________________________________________________
block2_conv1 (Conv2D)        (None, 112, 150, 128)     73856     
_________________________________________________________________
block2_conv2 (Conv2D)        (None, 112, 150, 128)     147584    
_________________________________________________________________
block2_pool (MaxPooling2D)   (None, 56, 75, 128)       0         
_________________________________________________________________
block3_conv1 (Conv2D)        (None, 56, 75, 256)       295168    
_________________________________________________________________
block3_conv2 (Conv2D)        (None, 56, 75, 256)       590080    
_________________________________________________________________
block3_conv3 (Conv2D)        (None, 56, 75, 256)       590080    
_________________________________________________________________
block3_pool (MaxPooling2D)   (None, 28, 37, 256)       0         
_________________________________________________________________
block4_conv1 (Conv2D)        (None, 28, 37, 512)       1180160   
_________________________________________________________________
block4_conv2 (Conv2D)        (None, 28, 37, 512)       2359808   
_________________________________________________________________
block4_conv3 (Conv2D)        (None, 28, 37, 512)       2359808   
_________________________________________________________________
block4_pool (MaxPooling2D)   (None, 14, 18, 512)       0         
_________________________________________________________________
block5_conv1 (Conv2D)        (None, 14, 18, 512)       2359808   
_________________________________________________________________
block5_conv2 (Conv2D)        (None, 14, 18, 512)       2359808   
_________________________________________________________________
block5_conv3 (Conv2D)        (None, 14, 18, 512)       2359808   
_________________________________________________________________
block5_pool (MaxPooling2D)   (None, 7, 9, 512)         0         
=================================================================
Total params: 14,714,688
Trainable params: 14,714,688
Non-trainable params: 0
_________________________________________________________________
